{"format": "graph-model", "generatedBy": "2.3.1", "convertedBy": "TensorFlow.js Converter v2.7.0", "userDefinedMetadata": {"signature": {"inputs": {"tokens:0": {"name": "tokens:0", "dtype": "DT_INT32", "tensorShape": {"dim": [{"size": "-1"}, {"size": "-1"}]}}}, "outputs": {"Identity:0": {"name": "Identity:0", "dtype": "DT_FLOAT", "tensorShape": {"dim": [{"size": "-1"}, {"size": "-1"}]}}}}}, "modelTopology": {"node": [{"name": "StatefulPartitionedCall/conv_spacer3/conv1d/conv1d/ExpandDims/dim", "op": "Const", "attr": {"dtype": {"type": "DT_INT32"}, "value": {"tensor": {"dtype": "DT_INT32", "tensorShape": {}}}}}, {"name": "StatefulPartitionedCall/conv_spacer3/conv1d/conv1d/ExpandDims_1", "op": "Const", "attr": {"value": {"tensor": {"dtype": "DT_FLOAT", "tensorShape": {"dim": [{"size": "1"}, {"size": "5"}, {"size": "128"}, {"size": "256"}]}}}, "dtype": {"type": "DT_FLOAT"}}}, {"name": "unknown_1", "op": "Const", "attr": {"dtype": {"type": "DT_FLOAT"}, "value": {"tensor": {"dtype": "DT_FLOAT", "tensorShape": {"dim": [{"size": "256"}]}}}}}, {"name": "StatefulPartitionedCall/conv_spacer3/conv1d_1/conv1d/ExpandDims/dim", "op": "Const", "attr": {"value": {"tensor": {"dtype": "DT_INT32", "tensorShape": {}}}, "dtype": {"type": "DT_INT32"}}}, {"name": "StatefulPartitionedCall/conv_spacer3/conv1d_1/conv1d/ExpandDims_1", "op": "Const", "attr": {"dtype": {"type": "DT_FLOAT"}, "value": {"tensor": {"dtype": "DT_FLOAT", "tensorShape": {"dim": [{"size": "1"}, {"size": "7"}, {"size": "128"}, {"size": "256"}]}}}}}, {"name": "unknown_3", "op": "Const", "attr": {"dtype": {"type": "DT_FLOAT"}, "value": {"tensor": {"dtype": "DT_FLOAT", "tensorShape": {"dim": [{"size": "256"}]}}}}}, {"name": "unknown", "op": "Const", "attr": {"value": {"tensor": {"dtype": "DT_FLOAT", "tensorShape": {"dim": [{"size": "4250"}, {"size": "128"}]}}}, "dtype": {"type": "DT_FLOAT"}}}, {"name": "StatefulPartitionedCall/conv_spacer3/embedding/embedding_lookup/axis", "op": "Const", "attr": {"dtype": {"type": "DT_INT32"}, "value": {"tensor": {"dtype": "DT_INT32", "tensorShape": {}}}}}, {"name": "StatefulPartitionedCall/conv_spacer3/conv1d_2/conv1d/ExpandDims/dim", "op": "Const", "attr": {"dtype": {"type": "DT_INT32"}, "value": {"tensor": {"dtype": "DT_INT32", "tensorShape": {}}}}}, {"name": "StatefulPartitionedCall/conv_spacer3/conv1d_2/conv1d/ExpandDims_1", "op": "Const", "attr": {"dtype": {"type": "DT_FLOAT"}, "value": {"tensor": {"dtype": "DT_FLOAT", "tensorShape": {"dim": [{"size": "1"}, {"size": "11"}, {"size": "128"}, {"size": "256"}]}}}}}, {"name": "unknown_5", "op": "Const", "attr": {"value": {"tensor": {"dtype": "DT_FLOAT", "tensorShape": {"dim": [{"size": "256"}]}}}, "dtype": {"type": "DT_FLOAT"}}}, {"name": "StatefulPartitionedCall/conv_spacer3/concat/axis", "op": "Const", "attr": {"value": {"tensor": {"dtype": "DT_INT32", "tensorShape": {}}}, "dtype": {"type": "DT_INT32"}}}, {"name": "StatefulPartitionedCall/conv_spacer3/conv1d_3/conv1d/ExpandDims/dim", "op": "Const", "attr": {"value": {"tensor": {"dtype": "DT_INT32", "tensorShape": {}}}, "dtype": {"type": "DT_INT32"}}}, {"name": "StatefulPartitionedCall/conv_spacer3/conv1d_3/conv1d/ExpandDims_1", "op": "Const", "attr": {"dtype": {"type": "DT_FLOAT"}, "value": {"tensor": {"dtype": "DT_FLOAT", "tensorShape": {"dim": [{"size": "1"}, {"size": "5"}, {"size": "896"}, {"size": "256"}]}}}}}, {"name": "unknown_7", "op": "Const", "attr": {"dtype": {"type": "DT_FLOAT"}, "value": {"tensor": {"dtype": "DT_FLOAT", "tensorShape": {"dim": [{"size": "256"}]}}}}}, {"name": "StatefulPartitionedCall/conv_spacer3/conv1d_4/conv1d/ExpandDims/dim", "op": "Const", "attr": {"value": {"tensor": {"dtype": "DT_INT32", "tensorShape": {}}}, "dtype": {"type": "DT_INT32"}}}, {"name": "StatefulPartitionedCall/conv_spacer3/conv1d_4/conv1d/ExpandDims_1", "op": "Const", "attr": {"value": {"tensor": {"dtype": "DT_FLOAT", "tensorShape": {"dim": [{"size": "1"}, {"size": "3"}, {"size": "256"}, {"size": "1"}]}}}, "dtype": {"type": "DT_FLOAT"}}}, {"name": "unknown_9", "op": "Const", "attr": {"value": {"tensor": {"dtype": "DT_FLOAT", "tensorShape": {"dim": [{"size": "1"}]}}}, "dtype": {"type": "DT_FLOAT"}}}, {"name": "StatefulPartitionedCall/conv_spacer3/strided_slice/stack", "op": "Const", "attr": {"value": {"tensor": {"dtype": "DT_INT32", "tensorShape": {"dim": [{"size": "3"}]}}}, "dtype": {"type": "DT_INT32"}}}, {"name": "StatefulPartitionedCall/conv_spacer3/strided_slice/stack_1", "op": "Const", "attr": {"dtype": {"type": "DT_INT32"}, "value": {"tensor": {"dtype": "DT_INT32", "tensorShape": {"dim": [{"size": "3"}]}}}}}, {"name": "StatefulPartitionedCall/conv_spacer3/strided_slice/stack_2", "op": "Const", "attr": {"value": {"tensor": {"dtype": "DT_INT32", "tensorShape": {"dim": [{"size": "3"}]}}}, "dtype": {"type": "DT_INT32"}}}, {"name": "tokens", "op": "Placeholder", "attr": {"shape": {"shape": {"dim": [{"size": "-1"}, {"size": "-1"}]}}, "dtype": {"type": "DT_INT32"}}}, {"name": "StatefulPartitionedCall/conv_spacer3/embedding/embedding_lookup", "op": "GatherV2", "input": ["unknown", "tokens", "StatefulPartitionedCall/conv_spacer3/embedding/embedding_lookup/axis"], "attr": {"Tindices": {"type": "DT_INT32"}, "Tparams": {"type": "DT_FLOAT"}, "batch_dims": {"i": "0"}, "Taxis": {"type": "DT_INT32"}}}, {"name": "StatefulPartitionedCall/conv_spacer3/conv1d/conv1d/ExpandDims", "op": "ExpandDims", "input": ["StatefulPartitionedCall/conv_spacer3/embedding/embedding_lookup", "StatefulPartitionedCall/conv_spacer3/conv1d/conv1d/ExpandDims/dim"], "attr": {"Tdim": {"type": "DT_INT32"}, "T": {"type": "DT_FLOAT"}}}, {"name": "StatefulPartitionedCall/conv_spacer3/conv1d_1/conv1d/ExpandDims", "op": "ExpandDims", "input": ["StatefulPartitionedCall/conv_spacer3/embedding/embedding_lookup", "StatefulPartitionedCall/conv_spacer3/conv1d_1/conv1d/ExpandDims/dim"], "attr": {"Tdim": {"type": "DT_INT32"}, "T": {"type": "DT_FLOAT"}}}, {"name": "StatefulPartitionedCall/conv_spacer3/conv1d_2/conv1d/ExpandDims", "op": "ExpandDims", "input": ["StatefulPartitionedCall/conv_spacer3/embedding/embedding_lookup", "StatefulPartitionedCall/conv_spacer3/conv1d_2/conv1d/ExpandDims/dim"], "attr": {"Tdim": {"type": "DT_INT32"}, "T": {"type": "DT_FLOAT"}}}, {"name": "StatefulPartitionedCall/conv_spacer3/conv1d/conv1d", "op": "_FusedConv2D", "input": ["StatefulPartitionedCall/conv_spacer3/conv1d/conv1d/ExpandDims", "StatefulPartitionedCall/conv_spacer3/conv1d/conv1d/ExpandDims_1", "unknown_1"], "device": "/device:CPU:0", "attr": {"strides": {"list": {"i": ["1", "1", "1", "1"]}}, "use_cudnn_on_gpu": {"b": true}, "num_args": {"i": "1"}, "explicit_paddings": {"list": {}}, "epsilon": {"f": 0.0}, "padding": {"s": "U0FNRQ=="}, "dilations": {"list": {"i": ["1", "1", "1", "1"]}}, "data_format": {"s": "TkhXQw=="}, "T": {"type": "DT_FLOAT"}, "fused_ops": {"list": {"s": ["Qmlhc0FkZA=="]}}}}, {"name": "StatefulPartitionedCall/conv_spacer3/conv1d_1/conv1d", "op": "_FusedConv2D", "input": ["StatefulPartitionedCall/conv_spacer3/conv1d_1/conv1d/ExpandDims", "StatefulPartitionedCall/conv_spacer3/conv1d_1/conv1d/ExpandDims_1", "unknown_3"], "device": "/device:CPU:0", "attr": {"use_cudnn_on_gpu": {"b": true}, "dilations": {"list": {"i": ["1", "1", "1", "1"]}}, "num_args": {"i": "1"}, "T": {"type": "DT_FLOAT"}, "epsilon": {"f": 0.0}, "explicit_paddings": {"list": {}}, "fused_ops": {"list": {"s": ["Qmlhc0FkZA=="]}}, "strides": {"list": {"i": ["1", "1", "1", "1"]}}, "data_format": {"s": "TkhXQw=="}, "padding": {"s": "U0FNRQ=="}}}, {"name": "StatefulPartitionedCall/conv_spacer3/conv1d_2/conv1d", "op": "_FusedConv2D", "input": ["StatefulPartitionedCall/conv_spacer3/conv1d_2/conv1d/ExpandDims", "StatefulPartitionedCall/conv_spacer3/conv1d_2/conv1d/ExpandDims_1", "unknown_5"], "device": "/device:CPU:0", "attr": {"use_cudnn_on_gpu": {"b": true}, "padding": {"s": "U0FNRQ=="}, "fused_ops": {"list": {"s": ["Qmlhc0FkZA=="]}}, "explicit_paddings": {"list": {}}, "dilations": {"list": {"i": ["1", "1", "1", "1"]}}, "strides": {"list": {"i": ["1", "1", "1", "1"]}}, "num_args": {"i": "1"}, "T": {"type": "DT_FLOAT"}, "epsilon": {"f": 0.0}, "data_format": {"s": "TkhXQw=="}}}, {"name": "StatefulPartitionedCall/conv_spacer3/conv1d/BiasAdd", "op": "Squeeze", "input": ["StatefulPartitionedCall/conv_spacer3/conv1d/conv1d"], "attr": {"T": {"type": "DT_FLOAT"}, "squeeze_dims": {"list": {"i": ["-3"]}}}}, {"name": "StatefulPartitionedCall/conv_spacer3/conv1d_1/BiasAdd", "op": "Squeeze", "input": ["StatefulPartitionedCall/conv_spacer3/conv1d_1/conv1d"], "attr": {"T": {"type": "DT_FLOAT"}, "squeeze_dims": {"list": {"i": ["-3"]}}}}, {"name": "StatefulPartitionedCall/conv_spacer3/conv1d_2/BiasAdd", "op": "Squeeze", "input": ["StatefulPartitionedCall/conv_spacer3/conv1d_2/conv1d"], "attr": {"T": {"type": "DT_FLOAT"}, "squeeze_dims": {"list": {"i": ["-3"]}}}}, {"name": "StatefulPartitionedCall/conv_spacer3/conv1d/Relu", "op": "Relu", "input": ["StatefulPartitionedCall/conv_spacer3/conv1d/BiasAdd"], "attr": {"T": {"type": "DT_FLOAT"}}}, {"name": "StatefulPartitionedCall/conv_spacer3/conv1d_1/Relu", "op": "Relu", "input": ["StatefulPartitionedCall/conv_spacer3/conv1d_1/BiasAdd"], "attr": {"T": {"type": "DT_FLOAT"}}}, {"name": "StatefulPartitionedCall/conv_spacer3/conv1d_2/Relu", "op": "Relu", "input": ["StatefulPartitionedCall/conv_spacer3/conv1d_2/BiasAdd"], "attr": {"T": {"type": "DT_FLOAT"}}}, {"name": "StatefulPartitionedCall/conv_spacer3/concat", "op": "ConcatV2", "input": ["StatefulPartitionedCall/conv_spacer3/embedding/embedding_lookup", "StatefulPartitionedCall/conv_spacer3/conv1d/Relu", "StatefulPartitionedCall/conv_spacer3/conv1d_1/Relu", "StatefulPartitionedCall/conv_spacer3/conv1d_2/Relu", "StatefulPartitionedCall/conv_spacer3/concat/axis"], "attr": {"T": {"type": "DT_FLOAT"}, "N": {"i": "4"}, "Tidx": {"type": "DT_INT32"}}}, {"name": "StatefulPartitionedCall/conv_spacer3/conv1d_3/conv1d/ExpandDims", "op": "ExpandDims", "input": ["StatefulPartitionedCall/conv_spacer3/concat", "StatefulPartitionedCall/conv_spacer3/conv1d_3/conv1d/ExpandDims/dim"], "attr": {"T": {"type": "DT_FLOAT"}, "Tdim": {"type": "DT_INT32"}}}, {"name": "StatefulPartitionedCall/conv_spacer3/conv1d_3/conv1d", "op": "_FusedConv2D", "input": ["StatefulPartitionedCall/conv_spacer3/conv1d_3/conv1d/ExpandDims", "StatefulPartitionedCall/conv_spacer3/conv1d_3/conv1d/ExpandDims_1", "unknown_7"], "device": "/device:CPU:0", "attr": {"use_cudnn_on_gpu": {"b": true}, "strides": {"list": {"i": ["1", "1", "1", "1"]}}, "num_args": {"i": "1"}, "padding": {"s": "U0FNRQ=="}, "explicit_paddings": {"list": {}}, "T": {"type": "DT_FLOAT"}, "epsilon": {"f": 0.0}, "fused_ops": {"list": {"s": ["Qmlhc0FkZA=="]}}, "dilations": {"list": {"i": ["1", "1", "1", "1"]}}, "data_format": {"s": "TkhXQw=="}}}, {"name": "StatefulPartitionedCall/conv_spacer3/conv1d_3/BiasAdd", "op": "Squeeze", "input": ["StatefulPartitionedCall/conv_spacer3/conv1d_3/conv1d"], "attr": {"T": {"type": "DT_FLOAT"}, "squeeze_dims": {"list": {"i": ["-3"]}}}}, {"name": "StatefulPartitionedCall/conv_spacer3/conv1d_3/Relu", "op": "Relu", "input": ["StatefulPartitionedCall/conv_spacer3/conv1d_3/BiasAdd"], "attr": {"T": {"type": "DT_FLOAT"}}}, {"name": "StatefulPartitionedCall/conv_spacer3/conv1d_4/conv1d/ExpandDims", "op": "ExpandDims", "input": ["StatefulPartitionedCall/conv_spacer3/conv1d_3/Relu", "StatefulPartitionedCall/conv_spacer3/conv1d_4/conv1d/ExpandDims/dim"], "attr": {"T": {"type": "DT_FLOAT"}, "Tdim": {"type": "DT_INT32"}}}, {"name": "StatefulPartitionedCall/conv_spacer3/conv1d_4/conv1d", "op": "_FusedConv2D", "input": ["StatefulPartitionedCall/conv_spacer3/conv1d_4/conv1d/ExpandDims", "StatefulPartitionedCall/conv_spacer3/conv1d_4/conv1d/ExpandDims_1", "unknown_9"], "device": "/device:CPU:0", "attr": {"fused_ops": {"list": {"s": ["Qmlhc0FkZA=="]}}, "strides": {"list": {"i": ["1", "1", "1", "1"]}}, "T": {"type": "DT_FLOAT"}, "epsilon": {"f": 0.0}, "padding": {"s": "U0FNRQ=="}, "explicit_paddings": {"list": {}}, "dilations": {"list": {"i": ["1", "1", "1", "1"]}}, "num_args": {"i": "1"}, "use_cudnn_on_gpu": {"b": true}, "data_format": {"s": "TkhXQw=="}}}, {"name": "StatefulPartitionedCall/conv_spacer3/conv1d_4/BiasAdd", "op": "Squeeze", "input": ["StatefulPartitionedCall/conv_spacer3/conv1d_4/conv1d"], "attr": {"T": {"type": "DT_FLOAT"}, "squeeze_dims": {"list": {"i": ["-3"]}}}}, {"name": "StatefulPartitionedCall/conv_spacer3/strided_slice", "op": "StridedSlice", "input": ["StatefulPartitionedCall/conv_spacer3/conv1d_4/BiasAdd", "StatefulPartitionedCall/conv_spacer3/strided_slice/stack", "StatefulPartitionedCall/conv_spacer3/strided_slice/stack_1", "StatefulPartitionedCall/conv_spacer3/strided_slice/stack_2"], "attr": {"shrink_axis_mask": {"i": "4"}, "T": {"type": "DT_FLOAT"}, "ellipsis_mask": {"i": "0"}, "Index": {"type": "DT_INT32"}, "begin_mask": {"i": "3"}, "new_axis_mask": {"i": "0"}, "end_mask": {"i": "3"}}}, {"name": "StatefulPartitionedCall/conv_spacer3/Sigmoid", "op": "Sigmoid", "input": ["StatefulPartitionedCall/conv_spacer3/strided_slice"], "attr": {"T": {"type": "DT_FLOAT"}}}, {"name": "Identity", "op": "Identity", "input": ["StatefulPartitionedCall/conv_spacer3/Sigmoid"], "attr": {"T": {"type": "DT_FLOAT"}}}], "library": {}, "versions": {"producer": 440}}, "weightsManifest": [{"paths": ["group1-shard1of3.bin", "group1-shard2of3.bin", "group1-shard3of3.bin"], "weights": [{"name": "StatefulPartitionedCall/conv_spacer3/conv1d/conv1d/ExpandDims/dim", "shape": [], "dtype": "int32"}, {"name": "StatefulPartitionedCall/conv_spacer3/conv1d/conv1d/ExpandDims_1", "shape": [1, 5, 128, 256], "dtype": "float32"}, {"name": "unknown_1", "shape": [256], "dtype": "float32"}, {"name": "StatefulPartitionedCall/conv_spacer3/conv1d_1/conv1d/ExpandDims/dim", "shape": [], "dtype": "int32"}, {"name": "StatefulPartitionedCall/conv_spacer3/conv1d_1/conv1d/ExpandDims_1", "shape": [1, 7, 128, 256], "dtype": "float32"}, {"name": "unknown_3", "shape": [256], "dtype": "float32"}, {"name": "unknown", "shape": [4250, 128], "dtype": "float32"}, {"name": "StatefulPartitionedCall/conv_spacer3/embedding/embedding_lookup/axis", "shape": [], "dtype": "int32"}, {"name": "StatefulPartitionedCall/conv_spacer3/conv1d_2/conv1d/ExpandDims/dim", "shape": [], "dtype": "int32"}, {"name": "StatefulPartitionedCall/conv_spacer3/conv1d_2/conv1d/ExpandDims_1", "shape": [1, 11, 128, 256], "dtype": "float32"}, {"name": "unknown_5", "shape": [256], "dtype": "float32"}, {"name": "StatefulPartitionedCall/conv_spacer3/concat/axis", "shape": [], "dtype": "int32"}, {"name": "StatefulPartitionedCall/conv_spacer3/conv1d_3/conv1d/ExpandDims/dim", "shape": [], "dtype": "int32"}, {"name": "StatefulPartitionedCall/conv_spacer3/conv1d_3/conv1d/ExpandDims_1", "shape": [1, 5, 896, 256], "dtype": "float32"}, {"name": "unknown_7", "shape": [256], "dtype": "float32"}, {"name": "StatefulPartitionedCall/conv_spacer3/conv1d_4/conv1d/ExpandDims/dim", "shape": [], "dtype": "int32"}, {"name": "StatefulPartitionedCall/conv_spacer3/conv1d_4/conv1d/ExpandDims_1", "shape": [1, 3, 256, 1], "dtype": "float32"}, {"name": "unknown_9", "shape": [1], "dtype": "float32"}, {"name": "StatefulPartitionedCall/conv_spacer3/strided_slice/stack", "shape": [3], "dtype": "int32"}, {"name": "StatefulPartitionedCall/conv_spacer3/strided_slice/stack_1", "shape": [3], "dtype": "int32"}, {"name": "StatefulPartitionedCall/conv_spacer3/strided_slice/stack_2", "shape": [3], "dtype": "int32"}]}]}